rnn_best.pt (torch, 378706 bytes, 6 tensors)

lstm.weight_ih_l0 f4 [256, 300]
000000 47 68 5d 3d 48 9a 2a 3e 18 92 2a 3d 48 54 d0 bc
       0.054054525 0.16660416 0.041643232 -0.025430813
000010 f2 9c ef 3c 77 4e f7 3d 17 85 bc bd 96 ea b0 bc
       0.029249642 0.12075513 -0.092050724 -0.021596234
000020 03 2a 06 bd 08 24 73 3c 12 93 e5 3c fd 78 a8 bd
       -0.03275491 0.0148401335 0.02802423 -0.08226202
000030 59 c6 ab bd 59 f5 d9 3d 0d ca 38 3c 09 e1 fa 3b
       -0.08387441 0.106424995 0.011278641 0.007656221
000040 fc c8 8c 3b 71 31 2e 3e cd 60 63 3c b8 27 8f bd
       0.00429642 0.17011048 0.01387806 -0.069899976
000050 c4 12 30 bd a6 d4 06 3e 45 2e b3 3a d0 99 09 bd
       -0.042986646 0.13167056 0.0013670406 -0.033593953
000060 e2 e2 01 3e 6a 1d 13 bd 1c b5 dd 3d 75 3f 37 bb
       0.12684205 -0.035916723 0.108255595 -0.0027961407
000070 da 99 e9 3d 3b 7e 68 3d 9f 4f 9e 3d 7c e5 47 3e
       0.11406298 0.056761008 0.0773003 0.19521135
000080 f5 c3 cb 3d 89 a2 69 3d 50 15 39 bc 5f f6 0f 3c
       0.09949485 0.05703977 -0.011296585 0.008786767
000090 bf 96 1c 3e e3 15 62 bd 57 38 5f bd e7 a5 e5 3c
       0.1529188 -0.055196654 -0.05449709 0.02803321
0000a0 d2 03 60 bd e7 e1 25 3d 39 f9 06 3d f6 45 0f 3e
       -0.054691143 0.04049864 0.03295252 0.13991532
0000b0 a9 44 1d 3d e9 e4 08 3e 9d 72 c3 3d 04 d9 ae bd
       0.038395558 0.13368572 0.09543345 -0.08537486
0000c0 52 62 15 bd af 86 a4 bc ba dc ea 3d 8c c4 02 3e
       -0.03647072 -0.020083753 0.114678815 0.12770289
0000d0 e0 d7 d0 3d 48 9f f7 3d 86 e7 4f 3d 6e a1 c1 3c
       0.10197425 0.12090927 0.050757907 0.023636546
0000e0 da 96 18 bd e8 99 09 3e 71 82 74 bd f2 65 fa 3c
       -0.03725324 0.13437617 -0.05969471 0.03056619
0000f0 49 57 38 3d ca 1d 1c 3e c7 67 07 bd 85 83 e5 bc
       0.045005117 0.15245739 -0.033057954 -0.028016815
000100 86 6a 34 bd d8 17 44 3d 30 dc 77 bd 60 98 3f 3d
       -0.0440469 0.0478743 -0.06051272 0.046776175
000110 47 14 f2 3d ae e3 8c 3c a3 96 ec bc 11 d2 f1 3d
       0.11820274 0.01719841 -0.028880423 0.11807645
000120 33 4d 15 bd 2f 29 63 3d a6 ce 1e 3e ba 58 3b bd
       -0.036450576 0.055459198 0.15508518 -0.045738913
000130 6d c3 e9 3d de 5f bc 3d 16 a6 77 3d aa fc ea 3d
       0.11414228 0.09197973 0.060461126 0.11473973
000140 9a e5 82 3d b2 52 91 3d 78 25 ec 3d 8a 5d 0f 3e
       0.06391449 0.07095851 0.11530584 0.14000526
000150 21 6e aa 3d ce df a7 bd cb 24 35 3c 04 0a 06 3d
       0.08321787 -0.08196984 0.011056135 0.032724395
000160 9e ae 3b bd 05 02 4d 3d 5a 70 16 3e 7f 4f 23 bc
       -0.045820825 0.050050754 0.14691296 -0.009967684
000170 5c cc 66 bd c0 0b c9 3d 06 71 3c bd b7 06 02 3e
       -0.056347236 0.09816694 -0.046006225 0.12697874
000180 de ab c8 3d cb 86 9b bc 77 1f 19 3d fb 1e 5a bd
       0.09798406 -0.018985173 0.037383523 -0.0532522
000190 46 1a 9d 3d 0b 55 8a 3d 0a 5e 05 3e a2 fb f4 3d
       0.07671027 0.06754502 0.13024154 0.11962058
0001a0 b9 5f 92 bd 74 f2 9b 3d 48 9f 3f 3d 26 bb b7 3d
       -0.07147164 0.07614604 0.04678276 0.089712426
0001b0 b1 0a be 3d 1e 90 c5 bc d2 82 9c bd 64 76 9b bd
       0.09279383 -0.024116572 -0.076421395 -0.075909406
0001c0 b6 50 b2 bb c1 1d a0 bd a3 d2 0a 3d d6 44 8a 3d
       -0.0054417504 -0.07818175 0.033892285 0.06751411
0001d0 02 83 59 3d 94 dc 68 3d 03 43 4c 3d aa ba 60 3d
       0.053103454 0.056850985 0.049868595 0.054865517
0001e0 d4 66 10 bc 55 39 2e bd b5 76 e2 bc 5c 19 07 3e
       -0.008813579 -0.042535145 -0.027644495 0.13193268
0001f0 ee ab c8 bd 0d d7 1c bb 1d 4a 91 3d a5 db c2 3d
       -0.09798418 -0.0023931891 0.07094214 0.0951455
000200 29 07 90 3d cd f0 d6 3c e5 a7 f5 3d db 95 14 3e
       0.07032616 0.02623787 0.11994914 0.1451029
000210 8f 53 18 3e f7 53 b0 bd f1 15 bf bc 23 77 d6 3d
       0.14875625 -0.08609765 -0.023325892 0.10471942
000220 00 14 21 3d 69 a9 fb 3d 04 bd b7 bd 4a 44 93 bb
       0.039325714 0.12288172 -0.08971599 -0.0044942247
000230 9d bf 98 3d e9 13 c4 3c fe b9 26 3e 3a a4 99 b9
       0.07458422 0.023935275 0.16281888 -0.00029304792
000240 f1 6e 15 3e 7f 15 79 3d ee 26 a1 bc c8 a5 e7 3d
       0.14593102 0.060811516 -0.019671883 0.11310917
000250 93 c4 a0 3d 49 26 fc 3d 0c bc af 3d 07 2e 25 3c
       0.078499936 0.1231199 0.08580789 0.010081775
000260 c9 6b 0b 3e fd 3b a8 3d 64 c7 99 bd 48 14 6f bd
       0.13615336 0.08214567 -0.07508734 -0.05836895
000270 88 ff a0 3c 8c b8 33 bd f1 c2 31 3d 4d 8b 1a 3c
       0.019653097 -0.04387717 0.0433988 0.009432626
000280 8d 8d 5c bd 31 80 69 bd ce 01 9d 3d 26 ef 94 3d
       -0.05384593 -0.05700702 0.0766636 0.072721764
000290 99 49 a3 3d 80 c1 82 3c ad e3 64 3d 07 49 99 bd
       0.07973022 0.015961409 0.05588119 -0.07484632
0002a0 0a fd ee 3c 25 9a a8 3d ed 3d b1 bd 95 9e 8d 3b
       0.029173393 0.08232526 -0.086543895 0.004321883
0002b0 0a 7b 76 bb 04 d0 22 bc 01 75 55 bd 5b a8 25 3d
       -0.0037609958 -0.00993729 -0.052113537 0.04044376
0002c0 e7 5d 29 3d 68 db 91 bd e5 5a b4 3d 89 10 98 3d
       0.041349318 -0.071219265 0.08806399 0.07425029
0002d0 bf 67 cb 3c e6 9a 5f bd 25 72 e5 3d 19 52 5c 3d
       0.024829743 -0.054591082 0.11203412 0.053789232
0002e0 02 34 da 3d 64 c4 98 bb 7b 2b 00 3e 36 35 b6 3d
       0.10654451 -0.0046620835 0.12516586 0.08896868
0002f0 f6 c7 81 3d 9b 65 ce bd 36 d1 9c 3d 6f ca 59 3d
       0.06336968 -0.100779735 0.07657091 0.05317157
000300 55 ed a8 bd f2 dc 0e 3e 76 7c 4e 3d 6c 4c 30 3d
       -0.082483925 0.13951471 0.050411664 0.04304163
000310 b9 13 b3 3d 87 ec 15 3d c5 f3 86 bd 8f 4f 83 bd
       0.08743996 0.036602523 -0.06589464 -0.06411659
000320 17 57 9e 3d 7b 2b 06 3e c7 e6 24 3e 54 78 85 3d
       0.07731455 0.13102524 0.1610366 0.065170914
000330 16 00 cd 3d 6f a8 50 bd 39 d8 bf 3c 77 a2 6f bc
       0.10009782 -0.05094188 0.023418533 -0.014626137
000340 87 4a b8 3c 40 7a 19 3e 93 f6 9d bd 25 79 c2 bd
       0.022496475 0.14988041 -0.07713046 -0.09495763
000350 5a d2 14 3d 60 4a 91 bd 57 79 dd bd 52 f2 4e 3c
       0.03633342 -0.07094264 -0.10814159 0.012631016
000360 7a 1d 29 bc b1 48 18 bd 2d 5d 1f 3d 9b ee a3 bc
       -0.010321969 -0.0371787 0.03890722 -0.020011237
000370 c0 05 59 bd ca 65 d9 bb a2 8a 6b bb dd 15 8a bb
       -0.052984 -0.0066344487 -0.0035940786 -0.004214032
000380 9e 90 36 3d 43 ec d8 3d 1d 69 cc 3c 9b 74 7d 3c
       0.04457151 0.10591938 0.024952466 0.015469695
000390 0d 17 d2 3d 6f 6f c7 bd 33 31 65 3d 4a 1d 7b 3c
       0.10258303 -0.09738051 0.055955123 0.015326807
0003a0 e4 2c 81 3d 63 3c 09 bd 64 e2 bd 3d e9 71 89 3d
       0.0630739 -0.033504855 0.09271696 0.0671118
0003b0 77 2e 28 3d db 6a a2 3d fd b9 00 3e d2 38 a5 bd
       0.041059937 0.07930537 0.12570949 -0.08067478
0003c0 61 58 8d bd 3b 42 7a bd cc b5 97 3d 09 6c c5 bc
       -0.069016226 -0.06109832 0.07407722 -0.024099367
0003d0 a6 6d d1 3d 2c 88 05 3e e5 3d b2 3d 34 2c 0e be
       0.10225992 0.13040227 0.08703212 -0.1388405
0003e0 e4 5c 35 bd 16 74 19 3e e0 f2 3a bc 7d c9 aa 3d
       -0.04427804 0.1498569 -0.011410445 0.08339212
0003f0 ee f6 49 3c f7 79 d6 3d 35 ab d3 3c 6d 1a fc 3d
       0.012326939 0.10472482 0.025838474 0.12309728

lstm.weight_hh_l0 f4 [256, 64]
000000 60 01 f6 bd e9 18 9c 3d 64 fd 5b 3d be 6d ae 3d
       -0.12011981 0.07621939 0.05370845 0.085170254
000010 e1 8e c9 bd 2f 2c 08 3e 75 19 4d 3d b7 5d 35 bd
       -0.09841705 0.13298105 0.050073106 -0.044278827
000020 ae 4d b2 bc 46 e5 95 3d a0 f8 9d 3c bd 6d 88 3d
       -0.021765556 0.07319121 0.019283593 0.06661556
000030 39 77 d9 3c 67 87 13 bd bb 02 25 3c ee b0 66 3d
       0.026546108 -0.0360178 0.010071452 0.056321077
000040 f9 b9 ba bc ec 7d 09 bd 00 05 8a bd a7 28 b0 bd
       -0.022793757 -0.033567354 -0.06739235 -0.08601504
000050 97 85 7f 3d d8 4a 9a bd 62 e1 19 bd 83 a6 07 3d
       0.06238326 -0.075338066 -0.037568457 0.033117782
000060 de 68 6b ba fc 31 aa 3d 22 5f c1 38 3e 83 48 3d
       -0.0008980165 0.08310315 9.220677e-05 0.048953287
000070 93 e6 e2 3d 0b 8f e4 3d 1b 6d 6f bc 8b 66 88 3d
       0.11079135 0.11160096 -0.014613415 0.066601835
000080 b7 60 a7 3d a8 84 ce 3d dd 69 c3 3d aa fe 4e bd
       0.08172744 0.10083896 0.09541676 -0.050535835
000090 42 c6 5e ba db f1 c6 bd d5 b6 ab 3d c6 40 0e 3d
       -0.00084981706 -0.09714099 0.08384482 0.03472974
0000a0 0f 7b 89 3d a2 48 3c bd 92 ea aa bd 49 7d 83 3b
       0.06712925 -0.045967706 -0.08345522 0.004012738
0000b0 71 70 94 bd c9 c6 3f bd 9c de 51 3c a1 f5 20 3e
       -0.07248009 -0.046820436 0.012809422 0.157187
0000c0 52 4e 86 3d 82 52 07 3e fd 50 3c 3e f9 f8 c2 3d
       0.06557907 0.13215068 0.1839027 0.09520144
0000d0 c9 e2 04 3c 96 39 9a 3d 3b 78 55 3c 59 4d 06 3e
       0.00811071 0.07530515 0.013029153 0.13115443
0000e0 49 b2 25 3b 2a 3f 94 bd d1 67 fd bd 99 8b a2 3d
       0.0025283268 -0.0723861 -0.12373317 0.079367824
0000f0 7e 31 16 3d ec ff cd bc 2e 56 46 bd 24 99 e4 3d
       0.036668293 -0.025146447 -0.04842203 0.11162022
000100 b2 e5 95 bd 35 1f c1 3c b6 ef 83 3d cf 29 12 3e
       -0.073192015 0.023574451 0.064422056 0.14273761
000110 74 39 2f 3c 80 df 28 3e 93 d5 c5 bd 6e 4d 97 3b
       0.01069485 0.16491508 -0.09659877 0.0046173846
000120 e6 d9 be 3d 21 49 04 3e 11 e7 af bd e8 59 b7 3c
       0.093189046 0.12918521 -0.08588994 0.022381738
000130 17 69 7d bd e6 eb 80 3d 5a e0 3e be eb 72 d0 3d
       -0.0618678 0.06294994 -0.18640271 0.10178169
000140 57 1b ee 3d ff c5 f8 3d ef ac ec 3d 39 83 5c 3d
       0.116263084 0.1214714 0.11556422 0.05383608
000150 af f4 ca 3c 01 e1 49 3d 94 65 28 be 52 0e 0c 3e
       0.024774877 0.049286846 -0.16444999 0.13677338
000160 1d 83 a4 bd a7 59 00 3d f2 ce b3 bc f8 4c 0e 3e
       -0.080328204 0.0313355 -0.021949265 0.13896549
000170 a4 89 9e bd e6 36 d3 bd 01 7c f4 3d 9b 61 89 b9
       -0.077410966 -0.103132054 0.11937714 -0.00026203398
000180 39 8f dc 3d 2d ad a4 bc bc f7 a8 bd 4e 32 4a bc
       0.10769505 -0.020102108 -0.082503766 -0.012341095
000190 ca 02 68 bd d7 72 37 3d 7b af 2b 3d 9e 22 e2 bc
       -0.056643285 0.044787254 0.041915398 -0.027604397
0001a0 bf 0a 98 3d 2e 05 18 bd 12 22 f5 3c 48 e3 66 bc
       0.07423925 -0.037114315 0.029923473 -0.014092274
0001b0 42 01 fe bd c6 46 11 3e bf bd b0 3d d1 04 2a 3e
       -0.12402584 0.14187154 0.08629941 0.166034
0001c0 46 66 0b 3e 14 1a 07 bd 68 43 0a 3e cd 9e fc 3c
       0.13613233 -0.032983854 0.13502276 0.03083744
0001d0 3f 8c 7a bd b3 e0 11 3e 79 42 7c bb 9c d6 1f 3e
       -0.061168905 0.14245872 -0.003849177 0.1560921
0001e0 87 ab eb 3d 00 05 60 bd ef e8 ae bc 07 b1 08 3e
       0.115073256 -0.05469227 -0.021351306 0.1334878
0001f0 8d d9 8d 3d ea 1b d3 bc 3f 95 f8 bd 7b d3 4e bd
       0.0692626 -0.025770146 -0.121378414 -0.050494652
000200 4a 1b 47 be 20 8e 9a 3d 1f 13 3a bd 6f 67 50 3d
       -0.19444004 0.075466394 -0.04542839 0.050879892
000210 97 1d ef bc d9 81 14 3e 06 06 e1 bd ae 42 92 3c
       -0.029188914 0.14502658 -0.10987477 0.017854061
000220 27 8f 74 bc b7 ac a4 bd eb d1 23 3d 12 5c 18 bc
       -0.014926708 -0.08040755 0.039995115 -0.009299295
000230 af 12 d8 3d 79 c2 a0 bd 35 d1 e6 bd 52 ea f0 bc
       0.105504386 -0.07849593 -0.11270372 -0.029408608
000240 5a 8a 81 bd 26 d6 86 3c 9d bd ab 3d b3 20 11 be
       -0.063252166 0.016459536 0.08385775 -0.1417263
000250 b3 d2 29 3d c2 57 62 3d 14 b2 0d be 8e b5 bc 3d
       0.041460704 0.055259474 -0.13837463 0.09214316
000260 27 b1 50 3d 6b 92 b5 bd 7e fa 7a bd 1c f0 45 bc
       0.050950196 -0.08865818 -0.061274044 -0.012081172
000270 21 ee 64 3d 12 ca 1a ba 0f 0d 93 3c 6f ab ad bd
       0.05589116 -0.00059047446 0.017950563 -0.08479964
000280 72 8e f6 3d 6e fd bf 3d ca d8 67 3d 48 bb ae bd
       0.12038888 0.0937451 0.05660323 -0.08531815
000290 01 23 81 3c 6c 22 85 3b 34 53 43 3c 10 d1 0f bd
       0.015763761 0.0040629413 0.011921693 -0.035111487
0002a0 7c ea c6 3d de 47 26 3e da 31 40 bd 43 5d 0c 3e
       0.09712693 0.16238353 -0.046922542 0.13707452
0002b0 31 1f f0 bd 7d d6 47 3d 41 0b bd bd ed 2d e5 3d
       -0.11724699 0.048788536 -0.09230662 0.111904
0002c0 28 11 c7 3d 1d 89 25 bd 99 dc 96 bc b3 a4 cc 3d
       0.09720069 -0.040413965 -0.018415736 0.099923514
0002d0 18 99 29 3c 6f e6 dd 3d 77 fe d6 bd 52 e9 a3 3c
       0.010351442 0.10834967 -0.10497754 0.020008717
0002e0 65 4e 57 3e 15 2d 10 3d f7 c1 31 be a3 49 0e 3e
       0.21025999 0.035199244 -0.17359148 0.13895278
0002f0 75 0c fa 3d 5f 1b a6 3d 5a 85 2b bd 34 f1 f3 3d
       0.12209407 0.08110689 -0.04187522 0.1191124
000300 4a 71 c1 3c 1a 6d 43 bd 35 7d 7f 3d 1e 54 f3 3d
       0.02361359 -0.04771147 0.062375266 0.118812785
000310 18 1a 93 bd 66 b6 b2 3d a8 b1 27 3d 74 fe 1a be
       -0.07182711 0.08726196 0.04094091 -0.15136129
000320 e1 1c 80 bb db e5 69 bd d6 d2 c8 bd b5 ff e8 3c
       -0.0039096926 -0.057103973 -0.09805839 0.028442243
000330 c1 98 74 bd 86 d4 c6 3c 7f a6 67 3d cc d6 65 bc
       -0.05971599 0.024271261 0.056555267 -0.014028262
000340 27 99 9a 3d cb 89 13 be 72 a9 0d 3e 8a b7 c3 3c
       0.07548743 -0.14408033 0.1383417 0.02389123
000350 f9 86 ba 3d 8d 6d 3a bd 32 a0 ba bc 10 92 fd 3d
       0.09107775 -0.045514632 -0.022781465 0.12381375
000360 9f 91 12 be b3 98 63 3d 3f 89 d4 bd 0d 48 3c bd
       -0.14313363 0.055565547 -0.1037774 -0.04596715
000370 e2 ad 9d 3d 3a fa 40 3c 3a da 14 bd ad d6 c6 bd
       0.07699181 0.011778409 -0.03634093 -0.09708915
000380 fb 72 24 3e 85 9e f4 bc bf f0 55 bc 83 a1 96 bd
       0.16059487 -0.029860744 -0.013057887 -0.07355025
000390 5c af 10 bd 27 b4 da 3d 60 a3 65 3c ce 3a b6 bc
       -0.035323486 0.106788926 0.014016002 -0.022244837
0003a0 6a d6 a8 3d d8 76 41 3d 2c 7f 10 3e 2d a9 bc 3d
       0.08244021 0.04723248 0.14111012 0.09211955
0003b0 31 2a ad bd fc ab ba bd 5a 7d 15 3d a4 85 6c 3d
       -0.08455313 -0.09114835 0.036496498 0.057744637
0003c0 8d 44 af bd 0a f8 0e bd 82 14 d7 3d e6 5c a0 3d
       -0.08557997 -0.034904517 0.105019584 0.07830219
0003d0 6d bf 1b 3e b8 3d e4 3d e2 32 82 3d 5b fd 11 bd
       0.15209742 0.111445844 0.063573614 -0.03564201
0003e0 3e 19 da 3b a1 95 29 be e5 5f 1d 3d 67 f4 0d 3e
       0.006655841 -0.16560985 0.03842153 0.13862763
0003f0 39 1d cb 3c ff 95 e8 bd ba bb 45 3d 41 61 fe 3d
       0.024794208 -0.113567345 0.048274733 0.124208935

lstm.bias_ih_l0 f4 [256]
000000 8b d7 f5 bc 72 cf 73 bd ab ca ad 3d ac 52 fb 3c
       -0.030010005 -0.059524007 0.084859215 0.03067907
000010 e4 01 6d bd f2 5f 66 3c 83 6f aa 39 83 70 60 3d
       -0.05786313 0.014060961 0.0003250801 0.0547948
000020 a9 67 e1 bd cd 41 95 3d f3 37 28 3e 9d 7d 11 3c
       -0.110061 0.07287941 0.16427593 0.008880046
000030 e1 10 58 bd 5e 47 63 bc e5 5e cb b9 d7 b0 f6 3d
       -0.052750472 -0.013871996 -0.0003878988 0.12045448
000040 21 77 82 3d 7e 7a 0a 3e 18 8f ae 3b 37 f3 74 bd
       0.06370378 0.1352329 0.0053271167 -0.05980226
000050 f4 e0 eb 3c 14 64 e7 3c 52 5e e1 3d 17 4b 1d bd
       0.02879379 0.028245963 0.11004318 -0.03840169
000060 1b 65 94 3c 90 53 12 bd 71 e9 44 bd 35 c2 cc 3c
       0.018114617 -0.035724223 -0.04807419 0.024994949
000070 24 84 1c bd 58 f0 22 3d 93 11 16 3d 3d bb dd 3d
       -0.038211957 0.03977999 0.036637854 0.108267285
000080 6e bf 22 bd 45 95 01 3e a3 46 be bc 6a 85 aa bc
       -0.039733343 0.12654598 -0.023227042 -0.02081557
000090 71 f6 b0 3b b9 79 99 bd a4 f8 01 bd 50 24 27 3e
       0.005400472 -0.0749392 -0.031731263 0.16322446
0000a0 4e db 77 3c c7 57 a2 3c 5d 9a ea 3d de 53 d3 3c
       0.01512797 0.019817246 0.11455224 0.025796827
0000b0 50 0f 31 3d 65 35 4e bd 09 28 b4 bd 16 56 cf bc
       0.043227494 -0.05034389 -0.087966986 -0.025309604
0000c0 95 12 f8 3d 3a 74 91 bd 1f 98 c0 3b e1 a7 9b bd
       0.12112919 -0.071022466 0.0058775092 -0.0760038
0000d0 cf f5 a2 bd d5 cd 82 3d 53 8d a3 3d 05 cc d6 3d
       -0.079570405 0.063869156 0.0798594 0.104881324
0000e0 19 e6 3a 3e bd 4a b1 bc 47 32 74 3d db b3 b3 3d
       0.18251838 -0.021642083 0.05961826 0.08774539
0000f0 5e 05 f8 3d 5f 4f 8c 3b cc 79 97 bd 70 38 2f 3c
       0.12110399 0.0042819227 -0.07396278 0.010694608
000100 77 b2 7f 3c 3e b4 c6 bd 81 03 45 3d 2e 34 1d 3d
       0.015606514 -0.09702347 0.048099045 0.03837984
000110 b2 68 cc ba b8 c6 f9 3d c8 46 a5 bd bf 4c 8e bd
       -0.0015595166 0.12196106 -0.08070141 -0.06948232
000120 46 59 da 3d 7f b5 a8 3c d9 bd dd 3d c5 c7 3b 3d
       0.10661559 0.020594357 0.10827226 0.045844812
000130 d2 71 11 3e e8 17 da bd 8c 3a a7 bc 51 ba 1f bd
       0.14203575 -0.10649091 -0.02041366 -0.038996045
000140 e6 9b 92 3d b8 7c 25 3e 90 6b 19 bd e8 64 f3 3d
       0.071586415 0.16160858 -0.037456095 0.11884481
000150 ea 23 01 3e a9 93 d2 bd 6d 11 49 3d 28 d2 3c 3d
       0.12611356 -0.1028207 0.049088884 0.046098858
000160 94 f9 b6 bd 15 cd d3 3a d9 8c c7 bd 01 6f ae bc
       -0.08934322 0.0016159142 -0.097436614 -0.021293165
000170 5b 89 9f 3d 81 d3 8d 3d 04 cf c0 bd a0 2c 06 3d
       0.0778987 0.06925107 -0.09414485 0.0327574
000180 51 8d 36 3d 02 43 fb bd 06 1d 89 3d b8 64 95 3d
       0.044568364 -0.1226864 0.06694989 0.07294601
000190 f8 50 b5 3c 54 b5 15 3e 63 64 8d 3d 3a d3 95 3c
       0.022133335 0.14619952 0.06903913 0.018289197
0001a0 b4 ee e6 bb eb 2e 4a bd 4a 17 fa bc f6 7a be 3c
       -0.0070474986 -0.04936115 -0.030528683 0.023251992
0001b0 b9 b8 96 bc 55 49 3f 3d 41 03 15 3e 5d 9e 8f 3d
       -0.01839863 0.046700794 0.14552023 0.07012627
0001c0 28 bb 0b 3d d9 3f 8e ba 95 a3 ae 3d 74 3c d5 bd
       0.034114033 -0.0010852768 0.085272945 -0.10411921
0001d0 20 f9 7b 3d 12 8b fb 3d 67 53 a1 3d 7e af 86 bc
       0.06151688 0.12282385 0.07877236 -0.016441103
0001e0 fb 40 0b 3d ea 25 64 3d 4c 44 37 bd 22 69 9d bb
       0.033997517 0.05570022 -0.044742867 -0.0048037926
0001f0 20 f4 4f bd ad 21 fd 3c 2a 4a 34 bd c0 bb e5 3c
       -0.050769925 0.030899847 -0.04401604 0.028043628
000200 cf 75 ae bd 9e 2e a1 bd c9 12 ae 3d ba 67 33 bd
       -0.08518564 -0.0787022 0.08499677 -0.043800093
000210 4d 01 09 be 1b 91 e0 bb c6 14 86 3d 1c 82 dd 3d
       -0.13379402 -0.0068532354 0.06546931 0.10815832
000220 69 65 44 3c 17 ee a2 bd a9 b0 88 3b 52 d3 c7 3c
       0.011987069 -0.07955568 0.00417145 0.024392758
000230 11 88 50 bd fe 9f a6 3d 21 04 8c bd 6c 5c bb 3d
       -0.050911013 0.08135985 -0.06836725 0.091484874
000240 ab de 58 bd bc 3d 6e 3d e1 7e 72 3c 60 65 5a 39
       -0.052946728 0.058164343 0.014800758 0.00020827865
000250 36 ba cb bc d8 be 10 3c 31 30 f1 bd 8d 80 db 3d
       -0.024869066 0.008834563 -0.1177677 0.107178785
000260 0a 9c 05 bd 4b a1 93 bd 4f 2e 9a 3d 73 d2 85 bd
       -0.032619514 -0.072084986 0.07528364 -0.06534281
000270 59 4d 95 39 24 2f fa 3d c2 70 a9 bd 29 0f 24 be
       0.00028477123 0.122160226 -0.0827346 -0.16021408
000280 e2 2f 0e 3e 21 10 b8 bd 7b 98 d3 3d 67 03 2b 3d
       0.13885453 -0.08987451 0.10331818 0.04175129
000290 63 8e 55 3d c8 ea b6 bd 02 5b ca 3d 20 ed 94 bd
       0.052137744 -0.089315 0.098806396 -0.072717905
0002a0 72 e6 99 bd 31 69 23 3d f1 ec 88 3d 2e 53 fa bc
       -0.07514657 0.03989524 0.06685818 -0.030557241
0002b0 c1 0a 3d 3d 3b ea cf bc 1a 93 09 3e 8d 65 80 3d
       0.046152834 -0.025380244 0.13435021 0.06269369
0002c0 41 46 f5 3d f0 c6 3d 3d 6a bc e8 3d fe b8 67 bd
       0.119762905 0.0463323 0.11364062 -0.056572907
0002d0 cd bf 0e bd c6 9a b4 bd a4 d1 07 bc 88 1d 97 3d
       -0.034850884 -0.08818583 -0.008289728 0.073786795
0002e0 f8 f2 97 bd 0d ad 1d bd aa 29 9a 3d ca 56 cb bd
       -0.074193895 -0.038495112 0.07527478 -0.09928663
0002f0 c7 dc e0 3c 92 e2 a5 bd 73 e0 d6 bd 05 68 9c 3c
       0.027449025 -0.080998555 -0.10492029 0.01909257
000300 93 72 20 bd 00 b1 07 3e a7 96 1d bd da f1 2c 3e
       -0.039171766 0.13251114 -0.03847375 0.16889134
000310 8c 41 6d bd 41 40 95 3d 85 93 9f 3d c7 6a a1 3d
       -0.05792384 0.07287646 0.07791809 0.07881694
000320 79 69 f6 bd ed 2e a9 bd c1 26 5f 3d c5 e5 0a 3e
       -0.12031836 -0.082609035 0.054480318 0.13564213
000330 27 cb 87 3d 4a c4 24 3d e7 6d 29 bd 49 b2 6a bd
       0.06630545 0.04022626 -0.041364577 -0.057298932
000340 16 86 64 bd ca 82 90 3d 70 96 5a 3d cd 3e 9b 3d
       -0.055791937 0.07056196 0.053366125 0.07580338
000350 11 ec a1 bc 42 c4 d5 3c c2 27 ca 3d 4c 8d 9c bd
       -0.019765886 0.02609456 0.098708645 -0.07644138
000360 82 5a 33 3e 91 b2 6d bd f0 eb 0c 3d 98 67 48 bd
       0.17514995 -0.058031622 0.034404695 -0.04892692
000370 ea 9a ad 3d be 71 60 bd cf d0 19 3e 56 f1 37 3a
       0.08476813 -0.054795973 0.1502106 0.0007016858
000380 b3 db 92 3d 84 f3 4b 3e 10 cc 02 3e a9 e0 04 bd
       0.071708106 0.19917113 0.12773156 -0.032440815
000390 47 75 94 bc ac 29 7d bc c0 c4 3f 3d 42 a8 e9 bc
       -0.018122328 -0.01545183 0.046818495 -0.028522614
0003a0 08 03 8e bd 6c 02 ad bb 76 bd 63 3b a0 22 9b bb
       -0.06934172 -0.0052798297 0.0034750379 -0.004734352
0003b0 45 8f 52 3d 5e 4a 04 bd 63 51 cf 3d 26 a3 26 3d
       0.051406164 -0.032297485 0.10122945 0.040682934
0003c0 6e 9c ad bd 52 82 00 3e 15 e1 23 3e 32 96 ec 3d
       -0.08477102 0.12549713 0.1600383 0.11552085
0003d0 32 d3 77 3d c8 9b 81 bd 1b 9f 14 3d e8 7c ab bd
       0.060504146 -0.06328541 0.036284547 -0.08373433
0003e0 a8 f1 14 bd e1 04 d3 3d d8 3f e5 3d 49 d0 27 bd
       -0.036363274 0.10303665 0.11193818 -0.04097012
0003f0 70 9d 3b 3d b9 97 35 3e 55 71 9c bd 17 6e 5a bd
       0.04580444 0.17733659 -0.07638804 -0.053327646

lstm.bias_hh_l0 f4 [256]
000000 6e 43 07 bd 0b 8f 1c 3e bf c4 5a 3c 20 e2 fc 3c
       -0.03302329 0.15288942 0.013352572 0.030869544
000010 09 4b 5d 3d ca 8e db 3d b1 2f 3a 3d 8a 76 db bc
       0.054026637 0.10720594 0.04545564 -0.026789922
000020 62 48 13 3d a8 ed 05 3e 05 1f 1b bd 2c 05 b8 3d
       0.0359577 0.1307894 -0.03787138 0.089853615
000030 01 a0 ac bd 4a 29 46 3d 86 12 80 bd fd cd 83 3d
       -0.08428956 0.04837922 -0.06253533 0.064357735
000040 57 d7 1d 3e 3e ae e6 3d 03 7b be 3d 4c 43 80 3d
       0.15414177 0.11263703 0.093008064 0.06262836
000050 19 9e eb 3d 64 ca 4e 3d 61 23 a1 bb 6b ee 5a bd
       0.11504764 0.050485983 -0.0049175476 -0.05345003
000060 a8 cf 9b 3d 1d 06 0d 3e f7 e3 2d 3e c8 22 21 3d
       0.07607967 0.13771863 0.16981493 0.03933981
000070 12 fa 9c bd 28 ee 9c 3d 4a 4d ca 3d c3 d1 78 3d
       -0.076648846 0.07662612 0.09878023 0.06074692
000080 d7 09 f1 3c ab b0 44 3d bd 45 1c bd 92 d4 24 3d
       0.029423637 0.048020046 -0.038152445 0.040241785
000090 40 20 b8 bd 8b 37 ee 3d d7 e2 8b bd b9 70 27 bc
       -0.08990526 0.11631688 -0.06830376 -0.010219746
0000a0 49 29 a8 3d 52 81 dd 3c 1d 41 65 3b a9 b7 bc 3d
       0.082109995 0.027039204 0.0034981437 0.09214718
0000b0 bd 4e 0b 3e b5 a6 14 bd 0a 88 36 bd e5 ed 7d 3c
       0.13604255 -0.036291797 -0.04456333 0.015498613
0000c0 85 c3 c2 bc 56 3d 83 bd b0 a1 5a 3d 23 09 ad 3a
       -0.023774872 -0.06408183 0.053376853 0.0013201575
0000d0 26 1e 10 3e 8b d5 00 3e f7 fb 8c bd 5d 34 9f 3d
       0.14074 0.1258146 -0.06883996 0.077736594
0000e0 d2 7c b8 3d 2d ad dc 3d 5a de 13 3e f3 e3 91 bb
       0.090081826 0.10775218 0.14440289 -0.0044522225
0000f0 a7 0b c3 3c 8a f0 ea 3d 42 84 1e 3d cb 7c 28 bd
       0.023809267 0.114716604 0.03870035 -0.041134637
000100 32 be 11 bb 78 af 92 bd 18 97 ef bb c6 8a c8 3d
       -0.002223861 -0.07162374 -0.007311713 0.09792094
000110 f0 da bc 3c f9 dc 83 3d 38 66 62 b9 44 15 04 bd
       0.023053616 0.064386316 -0.00021591119 -0.032246843
000120 32 c2 b4 3d 49 b9 3a bd ce b4 aa bc 08 a5 18 bd
       0.08826102 -0.045586858 -0.020838168 -0.03726676
000130 f6 23 ff 3d 5d da 09 3d cb 31 12 bd 0d 5a d3 3d
       0.12458031 0.033655513 -0.035692018 0.1031991
000140 ab 29 6f 3c 2d 23 5c 3d 17 75 a2 bc 54 29 67 3d
       0.014597337 0.053744484 -0.019831223 0.056435898
000150 9d da 14 bb c6 01 34 3d 95 66 ad bc 9a 7f aa bd
       -0.0022713311 0.043947004 -0.021167079 -0.08325119
000160 7a dc 84 3d 5f da fc 3d 45 be b3 bc 32 8a 7a 3d
       0.06487365 0.123463385 -0.021941314 0.06116695
000170 43 2c ce 3b 59 a1 3d bd ff 97 0d 3b 0f 02 10 3e
       0.0062918975 -0.04629645 0.002160549 0.14063285
000180 ed 82 0b 3c 4c 01 12 be 40 fc e0 bd 41 ef 81 bd
       0.008515102 -0.14258307 -0.10985613 -0.06344462
000190 0d 4b 99 bb 29 63 a2 3d f8 65 36 bc 13 ae 1a bd
       -0.004678136 0.079290695 -0.01113271 -0.037763666
0001a0 12 18 c6 bd a7 a9 72 bd c1 59 cf bc 1d f0 03 3e
       -0.0967256 -0.059243824 -0.025311353 0.12884565
0001b0 37 a5 47 3d 85 99 41 3d 40 d7 b5 bd bc d3 ac 3d
       0.048741546 0.04726555 -0.08878946 0.084388226
0001c0 30 06 14 3e 81 43 96 bd f3 c7 53 bd cb de 90 3d
       0.14455485 -0.07337094 -0.05170436 0.070737444
0001d0 52 d0 0e 3e 17 e5 75 3d e2 ac 55 3d a4 85 b2 bd
       0.13946655 0.06003293 0.052166827 -0.08716896
0001e0 fd dc c5 bb 09 03 43 bd 47 bc c3 bd 65 11 ec 3d
       -0.0060383067 -0.047610316 -0.095573954 0.11526755
0001f0 4f 73 73 3d 4d 9c 0f 3e 61 d6 24 3d d9 7c 89 3d
       0.05943614 0.14024468 0.04024351 0.06713266
000200 73 1f cf bd 1a f6 ba 3d 62 4e 94 3d a4 85 6b bd
       -0.1011342 0.091289714 0.07241513 -0.057500497
000210 de 8c 11 be 1a 8c 5d bd 65 32 a7 3d 44 76 0a 3d
       -0.14213893 -0.05408869 0.08163909 0.033804193
000220 07 cd 8b 3d a6 90 64 bd 24 59 71 3d 8e 3f d9 3d
       0.06826215 -0.05580201 0.0589229 0.10607825
000230 78 9a 8b bd a0 34 a2 3d ba e8 90 3d 2c d9 30 bb
       -0.06816572 0.07920194 0.07075639 -0.0026984913
000240 75 1d 1a 3d d4 0c 43 bd e7 8e 81 3d 3f 31 fb 3d
       0.03762575 -0.047619656 0.063260846 0.12265252
000250 ef 3d 48 bd d3 da ba 3c a7 b1 ab 3b 1f 67 c3 bd
       -0.04888719 0.022809422 0.0052396837 -0.09541153
000260 98 c1 81 bc c3 2d 8c 3d f1 72 52 bd c0 ae 56 3b
       -0.015839383 0.06844666 -0.051379148 0.0032757968
000270 06 29 93 bd 48 eb f3 bd f9 f3 2b 3d 4b e0 d4 bd
       -0.07185559 -0.11910111 0.041980717 -0.10394343
000280 51 b0 b0 3c c5 d6 93 bd 09 4e c6 bc bc e5 97 3c
       0.02156845 -0.072186984 -0.024207132 0.018542163
000290 73 08 bb bd c0 13 d4 3d ea bc 2d bc aa e3 7f bc
       -0.09132471 0.103553295 -0.010604123 -0.015618244
0002a0 69 e6 0a bd 51 5e f4 3d 5f 55 df 3d 17 75 e6 3d
       -0.033911142 0.11932052 0.10904955 0.11252802
0002b0 52 c5 83 3d f5 5a cb 3c 2e 90 68 3d 6e c2 eb 3d
       0.0643412 0.024823645 0.056778125 0.11511694
0002c0 85 ea a8 3d 1b 24 f0 bd 26 9e d6 bc 4d 8f cb bc
       0.08247856 -0.117256366 -0.026198458 -0.024848605
0002d0 fe 8d 8c bd 02 39 ce 3d 20 f0 dd bd 65 d2 67 3d
       -0.0686302 0.10069467 -0.10836816 0.056597132
0002e0 28 44 cb bd 75 fb 6c bd 05 28 04 be 18 59 fc 3d
       -0.09925109 -0.057856996 -0.12905891 0.12321681
0002f0 a2 a6 44 bc 6d 03 79 3d ea c2 56 bd 04 12 e5 3d
       -0.012002619 0.060794283 -0.05243198 0.11185077
000300 82 94 16 3e 14 4c 06 3e c0 0c 93 3d 47 1a 88 bd
       0.14705089 0.13114959 0.07180166 -0.06645637
000310 74 86 93 3d 51 7f 0f 3e 17 02 52 bd c7 da ab 3d
       0.07203379 0.14013411 -0.051271524 0.08391338
000320 9a 8b cc bd 66 29 93 3c 5e 14 88 bd e7 7d 25 3d
       -0.099875644 0.017964076 -0.0664451 0.040403273
000330 03 82 1d 3d 9d 30 da 3d 9b 0c e3 3d 8c f3 9c bd
       0.038454067 0.106538035 0.11086389 -0.076636404
000340 1d d1 de bc a2 aa 6c 3d 92 fc 18 3e 64 97 e9 3d
       -0.027199322 0.057779916 0.14940098 0.114058286
000350 38 00 54 3d b1 d9 d6 3d 2c 6f ff 3d b9 a2 13 3e
       0.05175802 0.1049074 0.12472376 0.14417543
000360 83 36 89 3d e1 48 57 3d 9a 5d b7 bb e6 04 14 bd
       0.066998504 0.052559737 -0.005595875 -0.036137484
000370 70 28 f3 3d 3b fa 17 3e ec 10 45 3c 01 69 2b bd
       0.11872947 0.14841549 0.01202796 -0.041848186
000380 69 d8 f1 3c d3 0b 13 3e e2 b8 fd 3c 7b 25 d8 3c
       0.029522138 0.1435998 0.030971948 0.02638506
000390 01 f4 f0 bc 56 90 24 3d 67 c8 41 3d 7b 5c b5 3d
       -0.029413225 0.040176712 0.04731026 0.0885553
0003a0 ef 3f 1d bc 8e f8 9d 3d ff d7 2a bd 34 fe 31 3d
       -0.0095977625 0.07713424 -0.041709896 0.043455318
0003b0 99 20 cb 3b 73 6b 44 bc 33 2b 30 3d 71 83 4a 3c
       0.0061989543 -0.0119885085 0.043009948 0.01236044
0003c0 7d de 96 bc 58 6a 33 bd 4e 33 89 3d 7f 7b c0 3d
       -0.018416638 -0.04380259 0.06699239 0.09398555
0003d0 39 6b f1 3d 4b b9 8c 3d 14 7b aa bd 26 e3 3e bd
       0.11788029 0.06871279 -0.083242565 -0.046603344
0003e0 a4 d7 30 3e b8 07 46 3c 5d 4b 86 3c 7a 0f c0 3b
       0.1726976 0.012086801 0.016393358 0.00586122
0003f0 97 c9 f7 3a a3 f4 02 3d ef 0b ee 3d 44 a6 d6 bc
       0.0018904683 0.031971585 0.1162337 -0.026202329

fc.weight f4 [5, 64]
000000 74 9b 41 3d dc 0e cd bc c3 a1 3c 3d 68 a9 b2 3d
       0.047267392 -0.0250315 0.046052705 0.08723718
000010 c9 64 b2 bd 55 ac e8 3d 4c e8 4e 3c f0 0c 01 be
       -0.087106295 0.11360995 0.012628626 -0.12602592
000020 87 3a 0b 3e 54 c2 f7 3d cc db ba bd 93 64 16 3d
       0.13596545 0.12097612 -0.09123954 0.03671701
000030 95 cb 10 be 35 0f 2b 3e b9 51 1a 3e 32 16 0a 3e
       -0.1414016 0.1670502 0.15070237 0.1348503
000040 d6 d5 50 3d 56 85 13 be 31 cd 5a bb 91 6e dc 3b
       0.05098518 -0.14406332 -0.0033386464 0.0067270477
000050 e8 69 33 bd 72 1c 1a be e7 ab d6 3d 37 34 8d 3d
       -0.043802172 -0.15049914 0.104820065 0.06894725
000060 ef 23 91 3d 49 65 1b 3e e8 29 4c 3e 8c e6 6d 3d
       0.07086932 0.15175356 0.19937861 0.058081195
000070 a0 2d 46 3d 79 00 b6 3d e3 d7 ec 3c f7 64 f0 bd
       0.048383355 0.08886809 0.028911537 -0.117380075
000080 0e 30 11 3e b8 59 00 3e d0 a9 60 3d 73 f5 76 bd
       0.14178488 0.12534225 0.054849446 -0.060292672
000090 06 f2 73 bd c1 e6 a1 b9 83 5c 88 3c e2 1c 26 be
       -0.059556983 -0.00030880238 0.016645676 -0.16221955
0000a0 54 2a c8 3d 2a cc 8c bd b1 55 a1 3d 20 6d bd 3d
       0.097736984 -0.06874879 0.078776725 0.092493296
0000b0 bc 4e 2a bc d1 31 14 3e 0e 6c e9 3d 4b 4a a3 3d
       -0.010394748 0.14472128 0.11397563 0.07973155
0000c0 c9 5e 23 bd 7a 3d e0 3d 55 62 5f 3c dc 51 c9 3c
       -0.039885316 0.10949226 0.013634284 0.024575166
0000d0 3b 0f 1c 3e 66 58 f6 3d 6f b0 18 3b 24 6a ee bc
       0.15240185 0.120285794 0.0023298522 -0.029103346
0000e0 30 67 03 be 27 86 7e 3b 49 af 11 3e 3f c5 13 3e
       -0.12832332 0.0038837285 0.14227022 0.14430712
0000f0 ef e4 19 3e dd 85 6d bd b5 b5 d0 3d 0b d5 9d bd
       0.15028737 -0.05798899 0.10190908 -0.0770665
000100 1f da 81 3d 4d 49 17 bd f5 f6 8c 3c d9 d7 e9 3c
       0.063404314 -0.03693514 0.017207602 0.028545307
000110 65 ce ec 3d 1a 37 bf 3d 91 82 53 bd e2 24 6b 3d
       0.11562804 0.09336682 -0.05163819 0.05740822
000120 c9 21 c6 bd 54 1b b7 bd c5 14 a3 3d 20 e6 b8 3d
       -0.09674413 -0.08940759 0.07962946 0.09028268
000130 6b 1a 1d bd 06 12 49 3d 6d bc 66 3c b8 52 b7 3d
       -0.038355272 0.049089454 0.01408301 0.08951324
000140 24 6d cc bd 2e 30 36 3c d2 91 6b 3d 7a 30 96 3d
       -0.099817544 0.011119885 0.057512112 0.07333465
000150 e9 ba 8d bc cd d3 35 bc e3 81 ee bd c7 22 23 be
       -0.01730104 -0.0110978605 -0.11645868 -0.15931235
000160 41 35 1b 3e 2a b4 c9 bd be 2b 14 bd 0d e2 df bd
       0.15157034 -0.09848817 -0.03617453 -0.10931788
000170 ae 6a 68 bc a4 26 54 3b ad 8b a1 3b f9 69 a4 bc
       -0.014185591 0.0032371664 0.0049299807 -0.020070063
000180 b8 c3 4d bd 3a 3e f5 3b 75 03 b3 3c c4 fd 17 3d
       -0.05023548 0.0074842246 0.021852234 0.037107244
000190 bc 2f 38 bd e8 72 3c 3d 2e 4c 20 be 59 04 4f 3d
       -0.044967398 0.04600802 -0.1565406 0.050541256
0001a0 a5 31 51 3d c0 a7 04 3d 92 88 c8 3d 1c fd 65 3d
       0.051072735 0.03238654 0.09791674 0.056149587
0001b0 83 9f 05 bc 57 09 e0 3d 1c 10 7f bd 0a db 2b bd
       -0.008155706 0.109392814 -0.062271222 -0.04195694
0001c0 5b fa e5 bd fa 3e 42 be e2 e2 bf bd 4b 29 b3 bc
       -0.11229392 -0.18969336 -0.09369446 -0.021870276
0001d0 76 26 ab 3b a2 3c 87 bd ef 04 10 bd 69 28 84 3d
       0.0052230908 -0.06603362 -0.035160955 0.0645302
0001e0 85 43 e7 bd 49 04 31 3c bc 99 1a be 30 9a 12 be
       -0.11292175 0.010804244 -0.15097708 -0.1431663
0001f0 25 60 66 3d 97 21 90 bd ec 65 98 bd 0e 8c 95 3a
       0.056244034 -0.07037657 -0.07441315 0.0011409537
000200 6f 2d 04 bd c3 2d ff bd d0 77 17 be 1c 7a 87 bc
       -0.03226989 -0.124599 -0.14791799 -0.016537718
000210 96 c9 2e 3e a2 e7 c2 bd d9 db b4 bc 5a 60 93 3d
       0.17069086 -0.09516837 -0.022077488 0.07196112
000220 99 dc f9 3c 3f 1f 2a be 5c 68 c4 bc 49 05 7e bc
       0.030500697 -0.16613482 -0.023975544 -0.01550419
000230 3a d6 b6 39 06 e7 fd bd a5 52 9f bc 27 7f 23 bc
       0.00034873356 -0.1239758 -0.019448588 -0.009979046
000240 38 ec cd bd f7 71 cf 3d 54 74 7d bd 82 85 f9 3d
       -0.10054821 0.10129159 -0.061878517 0.12183668
000250 c2 2e 0a be 53 f9 d5 3d f2 da 1e 3e 68 44 d2 bc
       -0.13494399 0.104479454 0.15513209 -0.025667384
000260 c9 ed 0d 3b f9 07 fd bd 0c 29 00 3e 86 92 ac bd
       0.0021656624 -0.12355036 0.12515658 -0.08426385
000270 02 2e 89 bc 20 ae 9d bd 9d db 5a 3d fd e3 2c 3e
       -0.016745571 -0.07699227 0.053432096 0.16883846
000280 0c 61 0b be 7a 32 c1 3d 6b d1 53 bd b6 86 92 3c
       -0.13611239 0.09433456 -0.05171339 0.0178865
000290 ea c7 f4 3d bc 0f 1f be 9a f9 3e 39 af 95 8d 3d
       0.11952193 -0.15533346 0.00018212796 0.069133155
0002a0 65 d5 13 be 30 b9 3b bd 61 20 8e 3d c6 57 0b bb
       -0.14436872 -0.045830905 0.069397695 -0.0021262034
0002b0 b8 1f c4 3d 2d 9b 09 3c 68 d6 15 be 13 f7 2d bd
       0.09576362 0.008398813 -0.1463257 -0.042471956
0002c0 b6 e4 a8 3c ca a8 35 3c b7 d5 00 be 73 99 9d 3c
       0.02061687 0.011087606 -0.12581526 0.01923821
0002d0 f4 8f 98 bd 1d 15 61 3d b6 8d bc 3d e3 a9 27 be
       -0.07449332 0.054951776 0.09206717 -0.163734
0002e0 92 ce bf 3c ba 2e fa 3d d3 de 97 3d 91 cc 48 bd
       0.02341393 0.12215944 0.07415547 -0.049023215
0002f0 6c 52 de bd ec 42 94 3c d3 eb 4d bd dc 0e 1e bc
       -0.108555645 0.018098317 -0.050273728 -0.009647097
000300 5d f5 67 3e 79 ef ba bd da e1 19 bd 8e 92 e4 bd
       0.22652192 -0.09127707 -0.037568904 -0.111607656
000310 c8 3e 4b 3e f3 97 36 bd aa b8 0a be 2a 75 26 bd
       0.19848168 -0.044578504 -0.13547006 -0.04063908
000320 f6 3e 1e bb c0 10 2d bd 82 bb f9 3d 46 c1 1a be
       -0.0024146414 -0.042252302 0.121939674 -0.1511279
000330 36 f2 b0 3d 11 c8 80 3d a3 cf 67 3d eb f1 a4 3b
       0.08639948 0.0628816 0.056594502 0.0050337217
000340 0a 4f 87 bd 1e a7 1b bd 05 32 ee bd 9f 7a 1b 3e
       -0.066068724 -0.038001172 -0.11630634 0.15183495
000350 75 94 c0 bd d6 35 2c 3c 25 98 38 3e 01 ba 1a be
       -0.09403316 0.010510882 0.18026789 -0.15110017
000360 78 16 39 3e 7e 52 a9 bc 2c d4 77 3d b0 24 e3 bd
       0.18074977 -0.020669218 0.060505077 -0.11090982
000370 bd 28 cf bd 4c 5b 5a bd fc 4b b7 bd 2f 34 17 3d
       -0.10115192 -0.053309724 -0.0895004 0.036915
000380 89 74 18 be dc 8e c1 3d 4f 97 61 3d 9b ff 1c 3e
       -0.14888205 0.094510764 0.05507594 0.15331881
000390 fe 59 20 3e 67 01 c6 bd b8 4f de 3d 49 ff 1f 3e
       0.1565933 -0.09668236 0.10855049 0.15624727
0003a0 ed 16 2c bd 89 da e3 3c 48 24 92 bd 5e 5f 96 bd
       -0.04201405 0.027814167 -0.07135826 -0.073424086
0003b0 c5 f4 c1 3d a4 e4 62 bc ac 4f 48 be cf 09 ef bd
       0.09470514 -0.0138484575 -0.19561642 -0.11671793
0003c0 56 41 99 bd 43 98 a3 bd 36 cd 69 bd 78 1b d8 bd
       -0.07483165 -0.07988026 -0.05708047 -0.10552114
0003d0 8e 6a 1f 3d 3f 81 45 be 24 c6 12 bd 19 70 55 be
       0.038919978 -0.19287585 -0.035833493 -0.20843543
0003e0 a7 de 3d 3d a2 5d b3 3d 3a 21 eb 3d 7d 8e 33 be
       0.046354916 0.087580934 0.11480947 -0.17534824
0003f0 df e1 23 bd ab 95 fd 3d 84 d5 71 bb a5 71 54 be
       -0.04001033 0.123820625 -0.0036900947 -0.20746477

fc.bias f4 [5]
000000 c8 13 13 3d e2 34 d6 3d 3c 16 a8 3d de bf cf bd
       0.035907537 0.10459305 0.08207366 -0.10144018
000010 9f d6 0b bd
       -0.034140225
